# Code to help figure out the architecture for freezing layers
for child in enumerate(model.children()):
  print(child)


Model summary for DenseNet121
==========================================================================================
Layer (type:depth-idx)                   Output Shape              Param #
==========================================================================================
DenseNet                                 [1, 1000]                 --
├─Sequential: 1-1                        [1, 1024, 7, 7]           --
│    └─Conv2d: 2-1                       [1, 64, 112, 122]         9,408
│    └─BatchNorm2d: 2-2                  [1, 64, 112, 122]         128
│    └─ReLU: 2-3                         [1, 64, 112, 122]         --
│    └─MaxPool2d: 2-4                    [1, 64, 56, 61]           --
│    └─_DenseBlock: 2-5                  [1, 256, 56, 61]          --
│    │    └─_DenseLayer: 3-1             [1, 32, 56, 61]           45,440
│    │    └─_DenseLayer: 3-2             [1, 32, 56, 61]           49,600
│    │    └─_DenseLayer: 3-3             [1, 32, 56, 61]           53,760
│    │    └─_DenseLayer: 3-4             [1, 32, 56, 61]           57,920
│    │    └─_DenseLayer: 3-5             [1, 32, 56, 61]           62,080
│    │    └─_DenseLayer: 3-6             [1, 32, 56, 61]           66,240
│    └─_Transition: 2-6                  [1, 128, 28, 30]          --
│    │    └─BatchNorm2d: 3-7             [1, 256, 56, 61]          512
│    │    └─ReLU: 3-8                    [1, 256, 56, 61]          --
│    │    └─Conv2d: 3-9                  [1, 128, 56, 61]          32,768
│    │    └─AvgPool2d: 3-10              [1, 128, 28, 30]          --
│    └─_DenseBlock: 2-7                  [1, 512, 28, 30]          --
│    │    └─_DenseLayer: 3-11            [1, 32, 28, 30]           53,760
│    │    └─_DenseLayer: 3-12            [1, 32, 28, 30]           57,920
│    │    └─_DenseLayer: 3-13            [1, 32, 28, 30]           62,080
│    │    └─_DenseLayer: 3-14            [1, 32, 28, 30]           66,240
│    │    └─_DenseLayer: 3-15            [1, 32, 28, 30]           70,400
│    │    └─_DenseLayer: 3-16            [1, 32, 28, 30]           74,560
│    │    └─_DenseLayer: 3-17            [1, 32, 28, 30]           78,720
│    │    └─_DenseLayer: 3-18            [1, 32, 28, 30]           82,880
│    │    └─_DenseLayer: 3-19            [1, 32, 28, 30]           87,040
│    │    └─_DenseLayer: 3-20            [1, 32, 28, 30]           91,200
│    │    └─_DenseLayer: 3-21            [1, 32, 28, 30]           95,360
│    │    └─_DenseLayer: 3-22            [1, 32, 28, 30]           99,520
│    └─_Transition: 2-8                  [1, 256, 14, 15]          --
│    │    └─BatchNorm2d: 3-23            [1, 512, 28, 30]          1,024
│    │    └─ReLU: 3-24                   [1, 512, 28, 30]          --
│    │    └─Conv2d: 3-25                 [1, 256, 28, 30]          131,072
│    │    └─AvgPool2d: 3-26              [1, 256, 14, 15]          --
│    └─_DenseBlock: 2-9                  [1, 1024, 14, 15]         --
│    │    └─_DenseLayer: 3-27            [1, 32, 14, 15]           70,400
│    │    └─_DenseLayer: 3-28            [1, 32, 14, 15]           74,560
│    │    └─_DenseLayer: 3-29            [1, 32, 14, 15]           78,720
│    │    └─_DenseLayer: 3-30            [1, 32, 14, 15]           82,880
│    │    └─_DenseLayer: 3-31            [1, 32, 14, 15]           87,040
│    │    └─_DenseLayer: 3-32            [1, 32, 14, 15]           91,200
│    │    └─_DenseLayer: 3-33            [1, 32, 14, 15]           95,360
│    │    └─_DenseLayer: 3-34            [1, 32, 14, 15]           99,520
│    │    └─_DenseLayer: 3-35            [1, 32, 14, 15]           103,680
│    │    └─_DenseLayer: 3-36            [1, 32, 14, 15]           107,840
│    │    └─_DenseLayer: 3-37            [1, 32, 14, 15]           112,000
│    │    └─_DenseLayer: 3-38            [1, 32, 14, 15]           116,160
│    │    └─_DenseLayer: 3-39            [1, 32, 14, 15]           120,320
│    │    └─_DenseLayer: 3-40            [1, 32, 14, 15]           124,480
│    │    └─_DenseLayer: 3-41            [1, 32, 14, 15]           128,640
│    │    └─_DenseLayer: 3-42            [1, 32, 14, 15]           132,800
│    │    └─_DenseLayer: 3-43            [1, 32, 14, 15]           136,960
│    │    └─_DenseLayer: 3-44            [1, 32, 14, 15]           141,120
│    │    └─_DenseLayer: 3-45            [1, 32, 14, 15]           145,280
│    │    └─_DenseLayer: 3-46            [1, 32, 14, 15]           149,440
│    │    └─_DenseLayer: 3-47            [1, 32, 14, 15]           153,600
│    │    └─_DenseLayer: 3-48            [1, 32, 14, 15]           157,760
│    │    └─_DenseLayer: 3-49            [1, 32, 14, 15]           161,920
│    │    └─_DenseLayer: 3-50            [1, 32, 14, 15]           166,080
│    └─_Transition: 2-10                 [1, 512, 7, 7]            --
│    │    └─BatchNorm2d: 3-51            [1, 1024, 14, 15]         2,048
│    │    └─ReLU: 3-52                   [1, 1024, 14, 15]         --
│    │    └─Conv2d: 3-53                 [1, 512, 14, 15]          524,288
│    │    └─AvgPool2d: 3-54              [1, 512, 7, 7]            --
│    └─_DenseBlock: 2-11                 [1, 1024, 7, 7]           --
│    │    └─_DenseLayer: 3-55            [1, 32, 7, 7]             103,680
│    │    └─_DenseLayer: 3-56            [1, 32, 7, 7]             107,840
│    │    └─_DenseLayer: 3-57            [1, 32, 7, 7]             112,000
│    │    └─_DenseLayer: 3-58            [1, 32, 7, 7]             116,160
│    │    └─_DenseLayer: 3-59            [1, 32, 7, 7]             120,320
│    │    └─_DenseLayer: 3-60            [1, 32, 7, 7]             124,480
│    │    └─_DenseLayer: 3-61            [1, 32, 7, 7]             128,640
│    │    └─_DenseLayer: 3-62            [1, 32, 7, 7]             132,800
│    │    └─_DenseLayer: 3-63            [1, 32, 7, 7]             136,960
│    │    └─_DenseLayer: 3-64            [1, 32, 7, 7]             141,120
│    │    └─_DenseLayer: 3-65            [1, 32, 7, 7]             145,280
│    │    └─_DenseLayer: 3-66            [1, 32, 7, 7]             149,440
│    │    └─_DenseLayer: 3-67            [1, 32, 7, 7]             153,600
│    │    └─_DenseLayer: 3-68            [1, 32, 7, 7]             157,760
│    │    └─_DenseLayer: 3-69            [1, 32, 7, 7]             161,920
│    │    └─_DenseLayer: 3-70            [1, 32, 7, 7]             166,080
│    └─BatchNorm2d: 2-12                 [1, 1024, 7, 7]           2,048
├─Linear: 1-2                            [1, 1000]                 1,025,000
==========================================================================================
Total params: 7,978,856
Trainable params: 7,978,856
Non-trainable params: 0
Total mult-adds (G): 3.05
==========================================================================================
Input size (MB): 0.66
Forward/backward pass size (MB): 194.50
Params size (MB): 31.92
Estimated Total Size (MB): 227.08
…
      (relu2): ReLU(inplace=True)
      (conv2): Conv2d(128, 32, kernel_size=(3, 3), stride=(1, 1), padding=(1, 1), bias=False)
    )
  )
  (norm5): BatchNorm2d(1024, eps=1e-05, momentum=0.1, affine=True, track_running_stats=True)
))
(1, Linear(in_features=1024, out_features=1000, bias=True))


Model summary for DenseNet169
==========================================================================================
Layer (type:depth-idx)                   Output Shape              Param #
==========================================================================================
DenseNet                                 [1, 1000]                 --
├─Sequential: 1-1                        [1, 1664, 7, 7]           --
│    └─Conv2d: 2-1                       [1, 64, 112, 122]         9,408
│    └─BatchNorm2d: 2-2                  [1, 64, 112, 122]         128
│    └─ReLU: 2-3                         [1, 64, 112, 122]         --
│    └─MaxPool2d: 2-4                    [1, 64, 56, 61]           --
│    └─_DenseBlock: 2-5                  [1, 256, 56, 61]          --
│    │    └─_DenseLayer: 3-1             [1, 32, 56, 61]           45,440
│    │    └─_DenseLayer: 3-2             [1, 32, 56, 61]           49,600
│    │    └─_DenseLayer: 3-3             [1, 32, 56, 61]           53,760
│    │    └─_DenseLayer: 3-4             [1, 32, 56, 61]           57,920
│    │    └─_DenseLayer: 3-5             [1, 32, 56, 61]           62,080
│    │    └─_DenseLayer: 3-6             [1, 32, 56, 61]           66,240
│    └─_Transition: 2-6                  [1, 128, 28, 30]          --
│    │    └─BatchNorm2d: 3-7             [1, 256, 56, 61]          512
│    │    └─ReLU: 3-8                    [1, 256, 56, 61]          --
│    │    └─Conv2d: 3-9                  [1, 128, 56, 61]          32,768
│    │    └─AvgPool2d: 3-10              [1, 128, 28, 30]          --
│    └─_DenseBlock: 2-7                  [1, 512, 28, 30]          --
│    │    └─_DenseLayer: 3-11            [1, 32, 28, 30]           53,760
│    │    └─_DenseLayer: 3-12            [1, 32, 28, 30]           57,920
│    │    └─_DenseLayer: 3-13            [1, 32, 28, 30]           62,080
│    │    └─_DenseLayer: 3-14            [1, 32, 28, 30]           66,240
│    │    └─_DenseLayer: 3-15            [1, 32, 28, 30]           70,400
│    │    └─_DenseLayer: 3-16            [1, 32, 28, 30]           74,560
│    │    └─_DenseLayer: 3-17            [1, 32, 28, 30]           78,720
│    │    └─_DenseLayer: 3-18            [1, 32, 28, 30]           82,880
│    │    └─_DenseLayer: 3-19            [1, 32, 28, 30]           87,040
│    │    └─_DenseLayer: 3-20            [1, 32, 28, 30]           91,200
│    │    └─_DenseLayer: 3-21            [1, 32, 28, 30]           95,360
│    │    └─_DenseLayer: 3-22            [1, 32, 28, 30]           99,520
│    └─_Transition: 2-8                  [1, 256, 14, 15]          --
│    │    └─BatchNorm2d: 3-23            [1, 512, 28, 30]          1,024
│    │    └─ReLU: 3-24                   [1, 512, 28, 30]          --
│    │    └─Conv2d: 3-25                 [1, 256, 28, 30]          131,072
│    │    └─AvgPool2d: 3-26              [1, 256, 14, 15]          --
│    └─_DenseBlock: 2-9                  [1, 1280, 14, 15]         --
│    │    └─_DenseLayer: 3-27            [1, 32, 14, 15]           70,400
│    │    └─_DenseLayer: 3-28            [1, 32, 14, 15]           74,560
│    │    └─_DenseLayer: 3-29            [1, 32, 14, 15]           78,720
│    │    └─_DenseLayer: 3-30            [1, 32, 14, 15]           82,880
│    │    └─_DenseLayer: 3-31            [1, 32, 14, 15]           87,040
│    │    └─_DenseLayer: 3-32            [1, 32, 14, 15]           91,200
│    │    └─_DenseLayer: 3-33            [1, 32, 14, 15]           95,360
│    │    └─_DenseLayer: 3-34            [1, 32, 14, 15]           99,520
│    │    └─_DenseLayer: 3-35            [1, 32, 14, 15]           103,680
│    │    └─_DenseLayer: 3-36            [1, 32, 14, 15]           107,840
│    │    └─_DenseLayer: 3-37            [1, 32, 14, 15]           112,000
│    │    └─_DenseLayer: 3-38            [1, 32, 14, 15]           116,160
│    │    └─_DenseLayer: 3-39            [1, 32, 14, 15]           120,320
│    │    └─_DenseLayer: 3-40            [1, 32, 14, 15]           124,480
│    │    └─_DenseLayer: 3-41            [1, 32, 14, 15]           128,640
│    │    └─_DenseLayer: 3-42            [1, 32, 14, 15]           132,800
│    │    └─_DenseLayer: 3-43            [1, 32, 14, 15]           136,960
│    │    └─_DenseLayer: 3-44            [1, 32, 14, 15]           141,120
│    │    └─_DenseLayer: 3-45            [1, 32, 14, 15]           145,280
│    │    └─_DenseLayer: 3-46            [1, 32, 14, 15]           149,440
│    │    └─_DenseLayer: 3-47            [1, 32, 14, 15]           153,600
│    │    └─_DenseLayer: 3-48            [1, 32, 14, 15]           157,760
│    │    └─_DenseLayer: 3-49            [1, 32, 14, 15]           161,920
│    │    └─_DenseLayer: 3-50            [1, 32, 14, 15]           166,080
│    │    └─_DenseLayer: 3-51            [1, 32, 14, 15]           170,240
│    │    └─_DenseLayer: 3-52            [1, 32, 14, 15]           174,400
│    │    └─_DenseLayer: 3-53            [1, 32, 14, 15]           178,560
│    │    └─_DenseLayer: 3-54            [1, 32, 14, 15]           182,720
│    │    └─_DenseLayer: 3-55            [1, 32, 14, 15]           186,880
│    │    └─_DenseLayer: 3-56            [1, 32, 14, 15]           191,040
│    │    └─_DenseLayer: 3-57            [1, 32, 14, 15]           195,200
│    │    └─_DenseLayer: 3-58            [1, 32, 14, 15]           199,360
│    └─_Transition: 2-10                 [1, 640, 7, 7]            --
│    │    └─BatchNorm2d: 3-59            [1, 1280, 14, 15]         2,560
│    │    └─ReLU: 3-60                   [1, 1280, 14, 15]         --
│    │    └─Conv2d: 3-61                 [1, 640, 14, 15]          819,200
│    │    └─AvgPool2d: 3-62              [1, 640, 7, 7]            --
│    └─_DenseBlock: 2-11                 [1, 1664, 7, 7]           --
│    │    └─_DenseLayer: 3-63            [1, 32, 7, 7]             120,320
│    │    └─_DenseLayer: 3-64            [1, 32, 7, 7]             124,480
│    │    └─_DenseLayer: 3-65            [1, 32, 7, 7]             128,640
│    │    └─_DenseLayer: 3-66            [1, 32, 7, 7]             132,800
│    │    └─_DenseLayer: 3-67            [1, 32, 7, 7]             136,960
│    │    └─_DenseLayer: 3-68            [1, 32, 7, 7]             141,120
│    │    └─_DenseLayer: 3-69            [1, 32, 7, 7]             145,280
│    │    └─_DenseLayer: 3-70            [1, 32, 7, 7]             149,440
│    │    └─_DenseLayer: 3-71            [1, 32, 7, 7]             153,600
│    │    └─_DenseLayer: 3-72            [1, 32, 7, 7]             157,760
│    │    └─_DenseLayer: 3-73            [1, 32, 7, 7]             161,920
│    │    └─_DenseLayer: 3-74            [1, 32, 7, 7]             166,080
│    │    └─_DenseLayer: 3-75            [1, 32, 7, 7]             170,240
│    │    └─_DenseLayer: 3-76            [1, 32, 7, 7]             174,400
│    │    └─_DenseLayer: 3-77            [1, 32, 7, 7]             178,560
│    │    └─_DenseLayer: 3-78            [1, 32, 7, 7]             182,720
│    │    └─_DenseLayer: 3-79            [1, 32, 7, 7]             186,880
│    │    └─_DenseLayer: 3-80            [1, 32, 7, 7]             191,040
│    │    └─_DenseLayer: 3-81            [1, 32, 7, 7]             195,200
│    │    └─_DenseLayer: 3-82            [1, 32, 7, 7]             199,360
│    │    └─_DenseLayer: 3-83            [1, 32, 7, 7]             203,520
│    │    └─_DenseLayer: 3-84            [1, 32, 7, 7]             207,680
│    │    └─_DenseLayer: 3-85            [1, 32, 7, 7]             211,840
│    │    └─_DenseLayer: 3-86            [1, 32, 7, 7]             216,000
│    │    └─_DenseLayer: 3-87            [1, 32, 7, 7]             220,160
│    │    └─_DenseLayer: 3-88            [1, 32, 7, 7]             224,320
│    │    └─_DenseLayer: 3-89            [1, 32, 7, 7]             228,480
│    │    └─_DenseLayer: 3-90            [1, 32, 7, 7]             232,640
│    │    └─_DenseLayer: 3-91            [1, 32, 7, 7]             236,800
│    │    └─_DenseLayer: 3-92            [1, 32, 7, 7]             240,960
│    │    └─_DenseLayer: 3-93            [1, 32, 7, 7]             245,120
│    │    └─_DenseLayer: 3-94            [1, 32, 7, 7]             249,280
│    └─BatchNorm2d: 2-12                 [1, 1664, 7, 7]           3,328
├─Linear: 1-2                            [1, 1000]                 1,665,000
==========================================================================================
Total params: 14,149,480
Trainable params: 14,149,480
Non-trainable params: 0
Total mult-adds (G): 3.60
==========================================================================================
Input size (MB): 0.66
Forward/backward pass size (MB): 225.88
Params size (MB): 56.60
Estimated Total Size (MB): 283.13
…
      (relu2): ReLU(inplace=True)
      (conv2): Conv2d(128, 32, kernel_size=(3, 3), stride=(1, 1), padding=(1, 1), bias=False)
    )
  )
  (norm5): BatchNorm2d(1664, eps=1e-05, momentum=0.1, affine=True, track_running_stats=True)
))
(1, Linear(in_features=1664, out_features=1000, bias=True))


Model summary for DenseNet201
==========================================================================================
Layer (type:depth-idx)                   Output Shape              Param #
==========================================================================================
DenseNet                                 [1, 1000]                 --
├─Sequential: 1-1                        [1, 1920, 7, 7]           --
│    └─Conv2d: 2-1                       [1, 64, 112, 122]         9,408
│    └─BatchNorm2d: 2-2                  [1, 64, 112, 122]         128
│    └─ReLU: 2-3                         [1, 64, 112, 122]         --
│    └─MaxPool2d: 2-4                    [1, 64, 56, 61]           --
│    └─_DenseBlock: 2-5                  [1, 256, 56, 61]          --
│    │    └─_DenseLayer: 3-1             [1, 32, 56, 61]           45,440
│    │    └─_DenseLayer: 3-2             [1, 32, 56, 61]           49,600
│    │    └─_DenseLayer: 3-3             [1, 32, 56, 61]           53,760
│    │    └─_DenseLayer: 3-4             [1, 32, 56, 61]           57,920
│    │    └─_DenseLayer: 3-5             [1, 32, 56, 61]           62,080
│    │    └─_DenseLayer: 3-6             [1, 32, 56, 61]           66,240
│    └─_Transition: 2-6                  [1, 128, 28, 30]          --
│    │    └─BatchNorm2d: 3-7             [1, 256, 56, 61]          512
│    │    └─ReLU: 3-8                    [1, 256, 56, 61]          --
│    │    └─Conv2d: 3-9                  [1, 128, 56, 61]          32,768
│    │    └─AvgPool2d: 3-10              [1, 128, 28, 30]          --
│    └─_DenseBlock: 2-7                  [1, 512, 28, 30]          --
│    │    └─_DenseLayer: 3-11            [1, 32, 28, 30]           53,760
│    │    └─_DenseLayer: 3-12            [1, 32, 28, 30]           57,920
│    │    └─_DenseLayer: 3-13            [1, 32, 28, 30]           62,080
│    │    └─_DenseLayer: 3-14            [1, 32, 28, 30]           66,240
│    │    └─_DenseLayer: 3-15            [1, 32, 28, 30]           70,400
│    │    └─_DenseLayer: 3-16            [1, 32, 28, 30]           74,560
│    │    └─_DenseLayer: 3-17            [1, 32, 28, 30]           78,720
│    │    └─_DenseLayer: 3-18            [1, 32, 28, 30]           82,880
│    │    └─_DenseLayer: 3-19            [1, 32, 28, 30]           87,040
│    │    └─_DenseLayer: 3-20            [1, 32, 28, 30]           91,200
│    │    └─_DenseLayer: 3-21            [1, 32, 28, 30]           95,360
│    │    └─_DenseLayer: 3-22            [1, 32, 28, 30]           99,520
│    └─_Transition: 2-8                  [1, 256, 14, 15]          --
│    │    └─BatchNorm2d: 3-23            [1, 512, 28, 30]          1,024
│    │    └─ReLU: 3-24                   [1, 512, 28, 30]          --
│    │    └─Conv2d: 3-25                 [1, 256, 28, 30]          131,072
│    │    └─AvgPool2d: 3-26              [1, 256, 14, 15]          --
│    └─_DenseBlock: 2-9                  [1, 1792, 14, 15]         --
│    │    └─_DenseLayer: 3-27            [1, 32, 14, 15]           70,400
│    │    └─_DenseLayer: 3-28            [1, 32, 14, 15]           74,560
│    │    └─_DenseLayer: 3-29            [1, 32, 14, 15]           78,720
│    │    └─_DenseLayer: 3-30            [1, 32, 14, 15]           82,880
│    │    └─_DenseLayer: 3-31            [1, 32, 14, 15]           87,040
│    │    └─_DenseLayer: 3-32            [1, 32, 14, 15]           91,200
│    │    └─_DenseLayer: 3-33            [1, 32, 14, 15]           95,360
│    │    └─_DenseLayer: 3-34            [1, 32, 14, 15]           99,520
│    │    └─_DenseLayer: 3-35            [1, 32, 14, 15]           103,680
│    │    └─_DenseLayer: 3-36            [1, 32, 14, 15]           107,840
│    │    └─_DenseLayer: 3-37            [1, 32, 14, 15]           112,000
│    │    └─_DenseLayer: 3-38            [1, 32, 14, 15]           116,160
│    │    └─_DenseLayer: 3-39            [1, 32, 14, 15]           120,320
│    │    └─_DenseLayer: 3-40            [1, 32, 14, 15]           124,480
│    │    └─_DenseLayer: 3-41            [1, 32, 14, 15]           128,640
│    │    └─_DenseLayer: 3-42            [1, 32, 14, 15]           132,800
│    │    └─_DenseLayer: 3-43            [1, 32, 14, 15]           136,960
│    │    └─_DenseLayer: 3-44            [1, 32, 14, 15]           141,120
│    │    └─_DenseLayer: 3-45            [1, 32, 14, 15]           145,280
│    │    └─_DenseLayer: 3-46            [1, 32, 14, 15]           149,440
│    │    └─_DenseLayer: 3-47            [1, 32, 14, 15]           153,600
│    │    └─_DenseLayer: 3-48            [1, 32, 14, 15]           157,760
│    │    └─_DenseLayer: 3-49            [1, 32, 14, 15]           161,920
│    │    └─_DenseLayer: 3-50            [1, 32, 14, 15]           166,080
│    │    └─_DenseLayer: 3-51            [1, 32, 14, 15]           170,240
│    │    └─_DenseLayer: 3-52            [1, 32, 14, 15]           174,400
│    │    └─_DenseLayer: 3-53            [1, 32, 14, 15]           178,560
│    │    └─_DenseLayer: 3-54            [1, 32, 14, 15]           182,720
│    │    └─_DenseLayer: 3-55            [1, 32, 14, 15]           186,880
│    │    └─_DenseLayer: 3-56            [1, 32, 14, 15]           191,040
│    │    └─_DenseLayer: 3-57            [1, 32, 14, 15]           195,200
│    │    └─_DenseLayer: 3-58            [1, 32, 14, 15]           199,360
│    │    └─_DenseLayer: 3-59            [1, 32, 14, 15]           203,520
│    │    └─_DenseLayer: 3-60            [1, 32, 14, 15]           207,680
│    │    └─_DenseLayer: 3-61            [1, 32, 14, 15]           211,840
│    │    └─_DenseLayer: 3-62            [1, 32, 14, 15]           216,000
│    │    └─_DenseLayer: 3-63            [1, 32, 14, 15]           220,160
│    │    └─_DenseLayer: 3-64            [1, 32, 14, 15]           224,320
│    │    └─_DenseLayer: 3-65            [1, 32, 14, 15]           228,480
│    │    └─_DenseLayer: 3-66            [1, 32, 14, 15]           232,640
│    │    └─_DenseLayer: 3-67            [1, 32, 14, 15]           236,800
│    │    └─_DenseLayer: 3-68            [1, 32, 14, 15]           240,960
│    │    └─_DenseLayer: 3-69            [1, 32, 14, 15]           245,120
│    │    └─_DenseLayer: 3-70            [1, 32, 14, 15]           249,280
│    │    └─_DenseLayer: 3-71            [1, 32, 14, 15]           253,440
│    │    └─_DenseLayer: 3-72            [1, 32, 14, 15]           257,600
│    │    └─_DenseLayer: 3-73            [1, 32, 14, 15]           261,760
│    │    └─_DenseLayer: 3-74            [1, 32, 14, 15]           265,920
│    └─_Transition: 2-10                 [1, 896, 7, 7]            --
│    │    └─BatchNorm2d: 3-75            [1, 1792, 14, 15]         3,584
│    │    └─ReLU: 3-76                   [1, 1792, 14, 15]         --
│    │    └─Conv2d: 3-77                 [1, 896, 14, 15]          1,605,632
│    │    └─AvgPool2d: 3-78              [1, 896, 7, 7]            --
│    └─_DenseBlock: 2-11                 [1, 1920, 7, 7]           --
│    │    └─_DenseLayer: 3-79            [1, 32, 7, 7]             153,600
│    │    └─_DenseLayer: 3-80            [1, 32, 7, 7]             157,760
│    │    └─_DenseLayer: 3-81            [1, 32, 7, 7]             161,920
│    │    └─_DenseLayer: 3-82            [1, 32, 7, 7]             166,080
│    │    └─_DenseLayer: 3-83            [1, 32, 7, 7]             170,240
│    │    └─_DenseLayer: 3-84            [1, 32, 7, 7]             174,400
│    │    └─_DenseLayer: 3-85            [1, 32, 7, 7]             178,560
│    │    └─_DenseLayer: 3-86            [1, 32, 7, 7]             182,720
│    │    └─_DenseLayer: 3-87            [1, 32, 7, 7]             186,880
│    │    └─_DenseLayer: 3-88            [1, 32, 7, 7]             191,040
│    │    └─_DenseLayer: 3-89            [1, 32, 7, 7]             195,200
│    │    └─_DenseLayer: 3-90            [1, 32, 7, 7]             199,360
│    │    └─_DenseLayer: 3-91            [1, 32, 7, 7]             203,520
│    │    └─_DenseLayer: 3-92            [1, 32, 7, 7]             207,680
│    │    └─_DenseLayer: 3-93            [1, 32, 7, 7]             211,840
│    │    └─_DenseLayer: 3-94            [1, 32, 7, 7]             216,000
│    │    └─_DenseLayer: 3-95            [1, 32, 7, 7]             220,160
│    │    └─_DenseLayer: 3-96            [1, 32, 7, 7]             224,320
│    │    └─_DenseLayer: 3-97            [1, 32, 7, 7]             228,480
│    │    └─_DenseLayer: 3-98            [1, 32, 7, 7]             232,640
│    │    └─_DenseLayer: 3-99            [1, 32, 7, 7]             236,800
│    │    └─_DenseLayer: 3-100           [1, 32, 7, 7]             240,960
│    │    └─_DenseLayer: 3-101           [1, 32, 7, 7]             245,120
│    │    └─_DenseLayer: 3-102           [1, 32, 7, 7]             249,280
│    │    └─_DenseLayer: 3-103           [1, 32, 7, 7]             253,440
│    │    └─_DenseLayer: 3-104           [1, 32, 7, 7]             257,600
│    │    └─_DenseLayer: 3-105           [1, 32, 7, 7]             261,760
│    │    └─_DenseLayer: 3-106           [1, 32, 7, 7]             265,920
│    │    └─_DenseLayer: 3-107           [1, 32, 7, 7]             270,080
│    │    └─_DenseLayer: 3-108           [1, 32, 7, 7]             274,240
│    │    └─_DenseLayer: 3-109           [1, 32, 7, 7]             278,400
│    │    └─_DenseLayer: 3-110           [1, 32, 7, 7]             282,560
│    └─BatchNorm2d: 2-12                 [1, 1920, 7, 7]           3,840
├─Linear: 1-2                            [1, 1000]                 1,921,000
==========================================================================================
Total params: 20,013,928
Trainable params: 20,013,928
Non-trainable params: 0
Total mult-adds (G): 4.60
==========================================================================================
Input size (MB): 0.66
Forward/backward pass size (MB): 279.08
Params size (MB): 80.06
Estimated Total Size (MB): 359.79
…
      (relu2): ReLU(inplace=True)
      (conv2): Conv2d(128, 32, kernel_size=(3, 3), stride=(1, 1), padding=(1, 1), bias=False)
    )
  )
  (norm5): BatchNorm2d(1920, eps=1e-05, momentum=0.1, affine=True, track_running_stats=True)
))
(1, Linear(in_features=1920, out_features=1000, bias=True))


Model summary for VGG16
==========================================================================================
Layer (type:depth-idx)                   Output Shape              Param #
==========================================================================================
VGG                                      [1, 1000]                 --
├─Sequential: 1-1                        [1, 512, 7, 7]            --
│    └─Conv2d: 2-1                       [1, 64, 224, 244]         1,792
│    └─ReLU: 2-2                         [1, 64, 224, 244]         --
│    └─Conv2d: 2-3                       [1, 64, 224, 244]         36,928
│    └─ReLU: 2-4                         [1, 64, 224, 244]         --
│    └─MaxPool2d: 2-5                    [1, 64, 112, 122]         --
│    └─Conv2d: 2-6                       [1, 128, 112, 122]        73,856
│    └─ReLU: 2-7                         [1, 128, 112, 122]        --
│    └─Conv2d: 2-8                       [1, 128, 112, 122]        147,584
│    └─ReLU: 2-9                         [1, 128, 112, 122]        --
│    └─MaxPool2d: 2-10                   [1, 128, 56, 61]          --
│    └─Conv2d: 2-11                      [1, 256, 56, 61]          295,168
│    └─ReLU: 2-12                        [1, 256, 56, 61]          --
│    └─Conv2d: 2-13                      [1, 256, 56, 61]          590,080
│    └─ReLU: 2-14                        [1, 256, 56, 61]          --
│    └─Conv2d: 2-15                      [1, 256, 56, 61]          590,080
│    └─ReLU: 2-16                        [1, 256, 56, 61]          --
│    └─MaxPool2d: 2-17                   [1, 256, 28, 30]          --
│    └─Conv2d: 2-18                      [1, 512, 28, 30]          1,180,160
│    └─ReLU: 2-19                        [1, 512, 28, 30]          --
│    └─Conv2d: 2-20                      [1, 512, 28, 30]          2,359,808
│    └─ReLU: 2-21                        [1, 512, 28, 30]          --
│    └─Conv2d: 2-22                      [1, 512, 28, 30]          2,359,808
│    └─ReLU: 2-23                        [1, 512, 28, 30]          --
│    └─MaxPool2d: 2-24                   [1, 512, 14, 15]          --
│    └─Conv2d: 2-25                      [1, 512, 14, 15]          2,359,808
│    └─ReLU: 2-26                        [1, 512, 14, 15]          --
│    └─Conv2d: 2-27                      [1, 512, 14, 15]          2,359,808
│    └─ReLU: 2-28                        [1, 512, 14, 15]          --
│    └─Conv2d: 2-29                      [1, 512, 14, 15]          2,359,808
│    └─ReLU: 2-30                        [1, 512, 14, 15]          --
│    └─MaxPool2d: 2-31                   [1, 512, 7, 7]            --
├─AdaptiveAvgPool2d: 1-2                 [1, 512, 7, 7]            --
├─Sequential: 1-3                        [1, 1000]                 --
│    └─Linear: 2-32                      [1, 4096]                 102,764,544
│    └─ReLU: 2-33                        [1, 4096]                 --
│    └─Dropout: 2-34                     [1, 4096]                 --
│    └─Linear: 2-35                      [1, 4096]                 16,781,312
│    └─ReLU: 2-36                        [1, 4096]                 --
│    └─Dropout: 2-37                     [1, 4096]                 --
│    └─Linear: 2-38                      [1, 1000]                 4,097,000
==========================================================================================
Total params: 138,357,544
Trainable params: 138,357,544
Non-trainable params: 0
Total mult-adds (G): 16.75
==========================================================================================
Input size (MB): 0.66
Forward/backward pass size (MB): 117.92
Params size (MB): 553.43
Estimated Total Size (MB): 672.00
…
  (0): Linear(in_features=25088, out_features=4096, bias=True)
  (1): ReLU(inplace=True)
  (2): Dropout(p=0.5, inplace=False)
  (3): Linear(in_features=4096, out_features=4096, bias=True)
  (4): ReLU(inplace=True)
  (5): Dropout(p=0.5, inplace=False)
  (6): Linear(in_features=4096, out_features=1000, bias=True)
))


Model summary for VGG19
==========================================================================================
Layer (type:depth-idx)                   Output Shape              Param #
==========================================================================================
VGG                                      [1, 1000]                 --
├─Sequential: 1-1                        [1, 512, 7, 7]            --
│    └─Conv2d: 2-1                       [1, 64, 224, 244]         1,792
│    └─ReLU: 2-2                         [1, 64, 224, 244]         --
│    └─Conv2d: 2-3                       [1, 64, 224, 244]         36,928
│    └─ReLU: 2-4                         [1, 64, 224, 244]         --
│    └─MaxPool2d: 2-5                    [1, 64, 112, 122]         --
│    └─Conv2d: 2-6                       [1, 128, 112, 122]        73,856
│    └─ReLU: 2-7                         [1, 128, 112, 122]        --
│    └─Conv2d: 2-8                       [1, 128, 112, 122]        147,584
│    └─ReLU: 2-9                         [1, 128, 112, 122]        --
│    └─MaxPool2d: 2-10                   [1, 128, 56, 61]          --
│    └─Conv2d: 2-11                      [1, 256, 56, 61]          295,168
│    └─ReLU: 2-12                        [1, 256, 56, 61]          --
│    └─Conv2d: 2-13                      [1, 256, 56, 61]          590,080
│    └─ReLU: 2-14                        [1, 256, 56, 61]          --
│    └─Conv2d: 2-15                      [1, 256, 56, 61]          590,080
│    └─ReLU: 2-16                        [1, 256, 56, 61]          --
│    └─Conv2d: 2-17                      [1, 256, 56, 61]          590,080
│    └─ReLU: 2-18                        [1, 256, 56, 61]          --
│    └─MaxPool2d: 2-19                   [1, 256, 28, 30]          --
│    └─Conv2d: 2-20                      [1, 512, 28, 30]          1,180,160
│    └─ReLU: 2-21                        [1, 512, 28, 30]          --
│    └─Conv2d: 2-22                      [1, 512, 28, 30]          2,359,808
│    └─ReLU: 2-23                        [1, 512, 28, 30]          --
│    └─Conv2d: 2-24                      [1, 512, 28, 30]          2,359,808
│    └─ReLU: 2-25                        [1, 512, 28, 30]          --
│    └─Conv2d: 2-26                      [1, 512, 28, 30]          2,359,808
│    └─ReLU: 2-27                        [1, 512, 28, 30]          --
│    └─MaxPool2d: 2-28                   [1, 512, 14, 15]          --
│    └─Conv2d: 2-29                      [1, 512, 14, 15]          2,359,808
│    └─ReLU: 2-30                        [1, 512, 14, 15]          --
│    └─Conv2d: 2-31                      [1, 512, 14, 15]          2,359,808
│    └─ReLU: 2-32                        [1, 512, 14, 15]          --
│    └─Conv2d: 2-33                      [1, 512, 14, 15]          2,359,808
│    └─ReLU: 2-34                        [1, 512, 14, 15]          --
│    └─Conv2d: 2-35                      [1, 512, 14, 15]          2,359,808
│    └─ReLU: 2-36                        [1, 512, 14, 15]          --
│    └─MaxPool2d: 2-37                   [1, 512, 7, 7]            --
├─AdaptiveAvgPool2d: 1-2                 [1, 512, 7, 7]            --
├─Sequential: 1-3                        [1, 1000]                 --
│    └─Linear: 2-38                      [1, 4096]                 102,764,544
│    └─ReLU: 2-39                        [1, 4096]                 --
│    └─Dropout: 2-40                     [1, 4096]                 --
│    └─Linear: 2-41                      [1, 4096]                 16,781,312
│    └─ReLU: 2-42                        [1, 4096]                 --
│    └─Dropout: 2-43                     [1, 4096]                 --
│    └─Linear: 2-44                      [1, 1000]                 4,097,000
==========================================================================================
Total params: 143,667,240
Trainable params: 143,667,240
Non-trainable params: 0
Total mult-adds (G): 21.24
==========================================================================================
Input size (MB): 0.66
Forward/backward pass size (MB): 129.21
Params size (MB): 574.67
Estimated Total Size (MB): 704.54
…
  (0): Linear(in_features=25088, out_features=4096, bias=True)
  (1): ReLU(inplace=True)
  (2): Dropout(p=0.5, inplace=False)
  (3): Linear(in_features=4096, out_features=4096, bias=True)
  (4): ReLU(inplace=True)
  (5): Dropout(p=0.5, inplace=False)
  (6): Linear(in_features=4096, out_features=1000, bias=True)
))


Model summary for Inception_V3
==========================================================================================
Layer (type:depth-idx)                   Output Shape              Param #
==========================================================================================
Inception3                               [1, 1000]                 3,326,696
├─BasicConv2d: 1-1                       [1, 32, 111, 121]         --
│    └─Conv2d: 2-1                       [1, 32, 111, 121]         864
│    └─BatchNorm2d: 2-2                  [1, 32, 111, 121]         64
├─BasicConv2d: 1-2                       [1, 32, 109, 119]         --
│    └─Conv2d: 2-3                       [1, 32, 109, 119]         9,216
│    └─BatchNorm2d: 2-4                  [1, 32, 109, 119]         64
├─BasicConv2d: 1-3                       [1, 64, 109, 119]         --
│    └─Conv2d: 2-5                       [1, 64, 109, 119]         18,432
│    └─BatchNorm2d: 2-6                  [1, 64, 109, 119]         128
├─MaxPool2d: 1-4                         [1, 64, 54, 59]           --
├─BasicConv2d: 1-5                       [1, 80, 54, 59]           --
│    └─Conv2d: 2-7                       [1, 80, 54, 59]           5,120
│    └─BatchNorm2d: 2-8                  [1, 80, 54, 59]           160
├─BasicConv2d: 1-6                       [1, 192, 52, 57]          --
│    └─Conv2d: 2-9                       [1, 192, 52, 57]          138,240
│    └─BatchNorm2d: 2-10                 [1, 192, 52, 57]          384
├─MaxPool2d: 1-7                         [1, 192, 25, 28]          --
├─InceptionA: 1-8                        [1, 256, 25, 28]          --
│    └─BasicConv2d: 2-11                 [1, 64, 25, 28]           --
│    │    └─Conv2d: 3-1                  [1, 64, 25, 28]           12,288
│    │    └─BatchNorm2d: 3-2             [1, 64, 25, 28]           128
│    └─BasicConv2d: 2-12                 [1, 48, 25, 28]           --
│    │    └─Conv2d: 3-3                  [1, 48, 25, 28]           9,216
│    │    └─BatchNorm2d: 3-4             [1, 48, 25, 28]           96
│    └─BasicConv2d: 2-13                 [1, 64, 25, 28]           --
│    │    └─Conv2d: 3-5                  [1, 64, 25, 28]           76,800
│    │    └─BatchNorm2d: 3-6             [1, 64, 25, 28]           128
│    └─BasicConv2d: 2-14                 [1, 64, 25, 28]           --
│    │    └─Conv2d: 3-7                  [1, 64, 25, 28]           12,288
│    │    └─BatchNorm2d: 3-8             [1, 64, 25, 28]           128
│    └─BasicConv2d: 2-15                 [1, 96, 25, 28]           --
│    │    └─Conv2d: 3-9                  [1, 96, 25, 28]           55,296
│    │    └─BatchNorm2d: 3-10            [1, 96, 25, 28]           192
│    └─BasicConv2d: 2-16                 [1, 96, 25, 28]           --
│    │    └─Conv2d: 3-11                 [1, 96, 25, 28]           82,944
│    │    └─BatchNorm2d: 3-12            [1, 96, 25, 28]           192
│    └─BasicConv2d: 2-17                 [1, 32, 25, 28]           --
│    │    └─Conv2d: 3-13                 [1, 32, 25, 28]           6,144
│    │    └─BatchNorm2d: 3-14            [1, 32, 25, 28]           64
├─InceptionA: 1-9                        [1, 288, 25, 28]          --
│    └─BasicConv2d: 2-18                 [1, 64, 25, 28]           --
│    │    └─Conv2d: 3-15                 [1, 64, 25, 28]           16,384
│    │    └─BatchNorm2d: 3-16            [1, 64, 25, 28]           128
│    └─BasicConv2d: 2-19                 [1, 48, 25, 28]           --
│    │    └─Conv2d: 3-17                 [1, 48, 25, 28]           12,288
│    │    └─BatchNorm2d: 3-18            [1, 48, 25, 28]           96
│    └─BasicConv2d: 2-20                 [1, 64, 25, 28]           --
│    │    └─Conv2d: 3-19                 [1, 64, 25, 28]           76,800
│    │    └─BatchNorm2d: 3-20            [1, 64, 25, 28]           128
│    └─BasicConv2d: 2-21                 [1, 64, 25, 28]           --
│    │    └─Conv2d: 3-21                 [1, 64, 25, 28]           16,384
│    │    └─BatchNorm2d: 3-22            [1, 64, 25, 28]           128
│    └─BasicConv2d: 2-22                 [1, 96, 25, 28]           --
│    │    └─Conv2d: 3-23                 [1, 96, 25, 28]           55,296
│    │    └─BatchNorm2d: 3-24            [1, 96, 25, 28]           192
│    └─BasicConv2d: 2-23                 [1, 96, 25, 28]           --
│    │    └─Conv2d: 3-25                 [1, 96, 25, 28]           82,944
│    │    └─BatchNorm2d: 3-26            [1, 96, 25, 28]           192
│    └─BasicConv2d: 2-24                 [1, 64, 25, 28]           --
│    │    └─Conv2d: 3-27                 [1, 64, 25, 28]           16,384
│    │    └─BatchNorm2d: 3-28            [1, 64, 25, 28]           128
├─InceptionA: 1-10                       [1, 288, 25, 28]          --
│    └─BasicConv2d: 2-25                 [1, 64, 25, 28]           --
│    │    └─Conv2d: 3-29                 [1, 64, 25, 28]           18,432
│    │    └─BatchNorm2d: 3-30            [1, 64, 25, 28]           128
│    └─BasicConv2d: 2-26                 [1, 48, 25, 28]           --
│    │    └─Conv2d: 3-31                 [1, 48, 25, 28]           13,824
│    │    └─BatchNorm2d: 3-32            [1, 48, 25, 28]           96
│    └─BasicConv2d: 2-27                 [1, 64, 25, 28]           --
│    │    └─Conv2d: 3-33                 [1, 64, 25, 28]           76,800
│    │    └─BatchNorm2d: 3-34            [1, 64, 25, 28]           128
│    └─BasicConv2d: 2-28                 [1, 64, 25, 28]           --
│    │    └─Conv2d: 3-35                 [1, 64, 25, 28]           18,432
│    │    └─BatchNorm2d: 3-36            [1, 64, 25, 28]           128
│    └─BasicConv2d: 2-29                 [1, 96, 25, 28]           --
│    │    └─Conv2d: 3-37                 [1, 96, 25, 28]           55,296
│    │    └─BatchNorm2d: 3-38            [1, 96, 25, 28]           192
│    └─BasicConv2d: 2-30                 [1, 96, 25, 28]           --
│    │    └─Conv2d: 3-39                 [1, 96, 25, 28]           82,944
│    │    └─BatchNorm2d: 3-40            [1, 96, 25, 28]           192
│    └─BasicConv2d: 2-31                 [1, 64, 25, 28]           --
│    │    └─Conv2d: 3-41                 [1, 64, 25, 28]           18,432
│    │    └─BatchNorm2d: 3-42            [1, 64, 25, 28]           128
├─InceptionB: 1-11                       [1, 768, 12, 13]          --
│    └─BasicConv2d: 2-32                 [1, 384, 12, 13]          --
│    │    └─Conv2d: 3-43                 [1, 384, 12, 13]          995,328
│    │    └─BatchNorm2d: 3-44            [1, 384, 12, 13]          768
│    └─BasicConv2d: 2-33                 [1, 64, 25, 28]           --
│    │    └─Conv2d: 3-45                 [1, 64, 25, 28]           18,432
│    │    └─BatchNorm2d: 3-46            [1, 64, 25, 28]           128
│    └─BasicConv2d: 2-34                 [1, 96, 25, 28]           --
│    │    └─Conv2d: 3-47                 [1, 96, 25, 28]           55,296
│    │    └─BatchNorm2d: 3-48            [1, 96, 25, 28]           192
│    └─BasicConv2d: 2-35                 [1, 96, 12, 13]           --
│    │    └─Conv2d: 3-49                 [1, 96, 12, 13]           82,944
│    │    └─BatchNorm2d: 3-50            [1, 96, 12, 13]           192
├─InceptionC: 1-12                       [1, 768, 12, 13]          --
│    └─BasicConv2d: 2-36                 [1, 192, 12, 13]          --
│    │    └─Conv2d: 3-51                 [1, 192, 12, 13]          147,456
│    │    └─BatchNorm2d: 3-52            [1, 192, 12, 13]          384
│    └─BasicConv2d: 2-37                 [1, 128, 12, 13]          --
│    │    └─Conv2d: 3-53                 [1, 128, 12, 13]          98,304
│    │    └─BatchNorm2d: 3-54            [1, 128, 12, 13]          256
│    └─BasicConv2d: 2-38                 [1, 128, 12, 13]          --
│    │    └─Conv2d: 3-55                 [1, 128, 12, 13]          114,688
│    │    └─BatchNorm2d: 3-56            [1, 128, 12, 13]          256
│    └─BasicConv2d: 2-39                 [1, 192, 12, 13]          --
│    │    └─Conv2d: 3-57                 [1, 192, 12, 13]          172,032
│    │    └─BatchNorm2d: 3-58            [1, 192, 12, 13]          384
│    └─BasicConv2d: 2-40                 [1, 128, 12, 13]          --
│    │    └─Conv2d: 3-59                 [1, 128, 12, 13]          98,304
│    │    └─BatchNorm2d: 3-60            [1, 128, 12, 13]          256
│    └─BasicConv2d: 2-41                 [1, 128, 12, 13]          --
│    │    └─Conv2d: 3-61                 [1, 128, 12, 13]          114,688
│    │    └─BatchNorm2d: 3-62            [1, 128, 12, 13]          256
│    └─BasicConv2d: 2-42                 [1, 128, 12, 13]          --
│    │    └─Conv2d: 3-63                 [1, 128, 12, 13]          114,688
│    │    └─BatchNorm2d: 3-64            [1, 128, 12, 13]          256
│    └─BasicConv2d: 2-43                 [1, 128, 12, 13]          --
│    │    └─Conv2d: 3-65                 [1, 128, 12, 13]          114,688
│    │    └─BatchNorm2d: 3-66            [1, 128, 12, 13]          256
│    └─BasicConv2d: 2-44                 [1, 192, 12, 13]          --
│    │    └─Conv2d: 3-67                 [1, 192, 12, 13]          172,032
│    │    └─BatchNorm2d: 3-68            [1, 192, 12, 13]          384
│    └─BasicConv2d: 2-45                 [1, 192, 12, 13]          --
│    │    └─Conv2d: 3-69                 [1, 192, 12, 13]          147,456
│    │    └─BatchNorm2d: 3-70            [1, 192, 12, 13]          384
├─InceptionC: 1-13                       [1, 768, 12, 13]          --
│    └─BasicConv2d: 2-46                 [1, 192, 12, 13]          --
│    │    └─Conv2d: 3-71                 [1, 192, 12, 13]          147,456
│    │    └─BatchNorm2d: 3-72            [1, 192, 12, 13]          384
│    └─BasicConv2d: 2-47                 [1, 160, 12, 13]          --
│    │    └─Conv2d: 3-73                 [1, 160, 12, 13]          122,880
│    │    └─BatchNorm2d: 3-74            [1, 160, 12, 13]          320
│    └─BasicConv2d: 2-48                 [1, 160, 12, 13]          --
│    │    └─Conv2d: 3-75                 [1, 160, 12, 13]          179,200
│    │    └─BatchNorm2d: 3-76            [1, 160, 12, 13]          320
│    └─BasicConv2d: 2-49                 [1, 192, 12, 13]          --
│    │    └─Conv2d: 3-77                 [1, 192, 12, 13]          215,040
│    │    └─BatchNorm2d: 3-78            [1, 192, 12, 13]          384
│    └─BasicConv2d: 2-50                 [1, 160, 12, 13]          --
│    │    └─Conv2d: 3-79                 [1, 160, 12, 13]          122,880
│    │    └─BatchNorm2d: 3-80            [1, 160, 12, 13]          320
│    └─BasicConv2d: 2-51                 [1, 160, 12, 13]          --
│    │    └─Conv2d: 3-81                 [1, 160, 12, 13]          179,200
│    │    └─BatchNorm2d: 3-82            [1, 160, 12, 13]          320
│    └─BasicConv2d: 2-52                 [1, 160, 12, 13]          --
│    │    └─Conv2d: 3-83                 [1, 160, 12, 13]          179,200
│    │    └─BatchNorm2d: 3-84            [1, 160, 12, 13]          320
│    └─BasicConv2d: 2-53                 [1, 160, 12, 13]          --
│    │    └─Conv2d: 3-85                 [1, 160, 12, 13]          179,200
│    │    └─BatchNorm2d: 3-86            [1, 160, 12, 13]          320
│    └─BasicConv2d: 2-54                 [1, 192, 12, 13]          --
│    │    └─Conv2d: 3-87                 [1, 192, 12, 13]          215,040
│    │    └─BatchNorm2d: 3-88            [1, 192, 12, 13]          384
│    └─BasicConv2d: 2-55                 [1, 192, 12, 13]          --
│    │    └─Conv2d: 3-89                 [1, 192, 12, 13]          147,456
│    │    └─BatchNorm2d: 3-90            [1, 192, 12, 13]          384
├─InceptionC: 1-14                       [1, 768, 12, 13]          --
│    └─BasicConv2d: 2-56                 [1, 192, 12, 13]          --
│    │    └─Conv2d: 3-91                 [1, 192, 12, 13]          147,456
│    │    └─BatchNorm2d: 3-92            [1, 192, 12, 13]          384
│    └─BasicConv2d: 2-57                 [1, 160, 12, 13]          --
│    │    └─Conv2d: 3-93                 [1, 160, 12, 13]          122,880
│    │    └─BatchNorm2d: 3-94            [1, 160, 12, 13]          320
│    └─BasicConv2d: 2-58                 [1, 160, 12, 13]          --
│    │    └─Conv2d: 3-95                 [1, 160, 12, 13]          179,200
│    │    └─BatchNorm2d: 3-96            [1, 160, 12, 13]          320
│    └─BasicConv2d: 2-59                 [1, 192, 12, 13]          --
│    │    └─Conv2d: 3-97                 [1, 192, 12, 13]          215,040
│    │    └─BatchNorm2d: 3-98            [1, 192, 12, 13]          384
│    └─BasicConv2d: 2-60                 [1, 160, 12, 13]          --
│    │    └─Conv2d: 3-99                 [1, 160, 12, 13]          122,880
│    │    └─BatchNorm2d: 3-100           [1, 160, 12, 13]          320
│    └─BasicConv2d: 2-61                 [1, 160, 12, 13]          --
│    │    └─Conv2d: 3-101                [1, 160, 12, 13]          179,200
│    │    └─BatchNorm2d: 3-102           [1, 160, 12, 13]          320
│    └─BasicConv2d: 2-62                 [1, 160, 12, 13]          --
│    │    └─Conv2d: 3-103                [1, 160, 12, 13]          179,200
│    │    └─BatchNorm2d: 3-104           [1, 160, 12, 13]          320
│    └─BasicConv2d: 2-63                 [1, 160, 12, 13]          --
│    │    └─Conv2d: 3-105                [1, 160, 12, 13]          179,200
│    │    └─BatchNorm2d: 3-106           [1, 160, 12, 13]          320
│    └─BasicConv2d: 2-64                 [1, 192, 12, 13]          --
│    │    └─Conv2d: 3-107                [1, 192, 12, 13]          215,040
│    │    └─BatchNorm2d: 3-108           [1, 192, 12, 13]          384
│    └─BasicConv2d: 2-65                 [1, 192, 12, 13]          --
│    │    └─Conv2d: 3-109                [1, 192, 12, 13]          147,456
│    │    └─BatchNorm2d: 3-110           [1, 192, 12, 13]          384
├─InceptionC: 1-15                       [1, 768, 12, 13]          --
│    └─BasicConv2d: 2-66                 [1, 192, 12, 13]          --
│    │    └─Conv2d: 3-111                [1, 192, 12, 13]          147,456
│    │    └─BatchNorm2d: 3-112           [1, 192, 12, 13]          384
│    └─BasicConv2d: 2-67                 [1, 192, 12, 13]          --
│    │    └─Conv2d: 3-113                [1, 192, 12, 13]          147,456
│    │    └─BatchNorm2d: 3-114           [1, 192, 12, 13]          384
│    └─BasicConv2d: 2-68                 [1, 192, 12, 13]          --
│    │    └─Conv2d: 3-115                [1, 192, 12, 13]          258,048
│    │    └─BatchNorm2d: 3-116           [1, 192, 12, 13]          384
│    └─BasicConv2d: 2-69                 [1, 192, 12, 13]          --
│    │    └─Conv2d: 3-117                [1, 192, 12, 13]          258,048
│    │    └─BatchNorm2d: 3-118           [1, 192, 12, 13]          384
│    └─BasicConv2d: 2-70                 [1, 192, 12, 13]          --
│    │    └─Conv2d: 3-119                [1, 192, 12, 13]          147,456
│    │    └─BatchNorm2d: 3-120           [1, 192, 12, 13]          384
│    └─BasicConv2d: 2-71                 [1, 192, 12, 13]          --
│    │    └─Conv2d: 3-121                [1, 192, 12, 13]          258,048
│    │    └─BatchNorm2d: 3-122           [1, 192, 12, 13]          384
│    └─BasicConv2d: 2-72                 [1, 192, 12, 13]          --
│    │    └─Conv2d: 3-123                [1, 192, 12, 13]          258,048
│    │    └─BatchNorm2d: 3-124           [1, 192, 12, 13]          384
│    └─BasicConv2d: 2-73                 [1, 192, 12, 13]          --
│    │    └─Conv2d: 3-125                [1, 192, 12, 13]          258,048
│    │    └─BatchNorm2d: 3-126           [1, 192, 12, 13]          384
│    └─BasicConv2d: 2-74                 [1, 192, 12, 13]          --
│    │    └─Conv2d: 3-127                [1, 192, 12, 13]          258,048
│    │    └─BatchNorm2d: 3-128           [1, 192, 12, 13]          384
│    └─BasicConv2d: 2-75                 [1, 192, 12, 13]          --
│    │    └─Conv2d: 3-129                [1, 192, 12, 13]          147,456
│    │    └─BatchNorm2d: 3-130           [1, 192, 12, 13]          384
├─InceptionD: 1-16                       [1, 1280, 5, 6]           --
│    └─BasicConv2d: 2-76                 [1, 192, 12, 13]          --
│    │    └─Conv2d: 3-131                [1, 192, 12, 13]          147,456
│    │    └─BatchNorm2d: 3-132           [1, 192, 12, 13]          384
│    └─BasicConv2d: 2-77                 [1, 320, 5, 6]            --
│    │    └─Conv2d: 3-133                [1, 320, 5, 6]            552,960
│    │    └─BatchNorm2d: 3-134           [1, 320, 5, 6]            640
│    └─BasicConv2d: 2-78                 [1, 192, 12, 13]          --
│    │    └─Conv2d: 3-135                [1, 192, 12, 13]          147,456
│    │    └─BatchNorm2d: 3-136           [1, 192, 12, 13]          384
│    └─BasicConv2d: 2-79                 [1, 192, 12, 13]          --
│    │    └─Conv2d: 3-137                [1, 192, 12, 13]          258,048
│    │    └─BatchNorm2d: 3-138           [1, 192, 12, 13]          384
│    └─BasicConv2d: 2-80                 [1, 192, 12, 13]          --
│    │    └─Conv2d: 3-139                [1, 192, 12, 13]          258,048
│    │    └─BatchNorm2d: 3-140           [1, 192, 12, 13]          384
│    └─BasicConv2d: 2-81                 [1, 192, 5, 6]            --
│    │    └─Conv2d: 3-141                [1, 192, 5, 6]            331,776
│    │    └─BatchNorm2d: 3-142           [1, 192, 5, 6]            384
├─InceptionE: 1-17                       [1, 2048, 5, 6]           --
│    └─BasicConv2d: 2-82                 [1, 320, 5, 6]            --
│    │    └─Conv2d: 3-143                [1, 320, 5, 6]            409,600
│    │    └─BatchNorm2d: 3-144           [1, 320, 5, 6]            640
│    └─BasicConv2d: 2-83                 [1, 384, 5, 6]            --
│    │    └─Conv2d: 3-145                [1, 384, 5, 6]            491,520
│    │    └─BatchNorm2d: 3-146           [1, 384, 5, 6]            768
│    └─BasicConv2d: 2-84                 [1, 384, 5, 6]            --
│    │    └─Conv2d: 3-147                [1, 384, 5, 6]            442,368
│    │    └─BatchNorm2d: 3-148           [1, 384, 5, 6]            768
│    └─BasicConv2d: 2-85                 [1, 384, 5, 6]            --
│    │    └─Conv2d: 3-149                [1, 384, 5, 6]            442,368
│    │    └─BatchNorm2d: 3-150           [1, 384, 5, 6]            768
│    └─BasicConv2d: 2-86                 [1, 448, 5, 6]            --
│    │    └─Conv2d: 3-151                [1, 448, 5, 6]            573,440
│    │    └─BatchNorm2d: 3-152           [1, 448, 5, 6]            896
│    └─BasicConv2d: 2-87                 [1, 384, 5, 6]            --
│    │    └─Conv2d: 3-153                [1, 384, 5, 6]            1,548,288
│    │    └─BatchNorm2d: 3-154           [1, 384, 5, 6]            768
│    └─BasicConv2d: 2-88                 [1, 384, 5, 6]            --
│    │    └─Conv2d: 3-155                [1, 384, 5, 6]            442,368
│    │    └─BatchNorm2d: 3-156           [1, 384, 5, 6]            768
│    └─BasicConv2d: 2-89                 [1, 384, 5, 6]            --
│    │    └─Conv2d: 3-157                [1, 384, 5, 6]            442,368
│    │    └─BatchNorm2d: 3-158           [1, 384, 5, 6]            768
│    └─BasicConv2d: 2-90                 [1, 192, 5, 6]            --
│    │    └─Conv2d: 3-159                [1, 192, 5, 6]            245,760
│    │    └─BatchNorm2d: 3-160           [1, 192, 5, 6]            384
├─InceptionE: 1-18                       [1, 2048, 5, 6]           --
│    └─BasicConv2d: 2-91                 [1, 320, 5, 6]            --
│    │    └─Conv2d: 3-161                [1, 320, 5, 6]            655,360
│    │    └─BatchNorm2d: 3-162           [1, 320, 5, 6]            640
│    └─BasicConv2d: 2-92                 [1, 384, 5, 6]            --
│    │    └─Conv2d: 3-163                [1, 384, 5, 6]            786,432
│    │    └─BatchNorm2d: 3-164           [1, 384, 5, 6]            768
│    └─BasicConv2d: 2-93                 [1, 384, 5, 6]            --
│    │    └─Conv2d: 3-165                [1, 384, 5, 6]            442,368
│    │    └─BatchNorm2d: 3-166           [1, 384, 5, 6]            768
│    └─BasicConv2d: 2-94                 [1, 384, 5, 6]            --
│    │    └─Conv2d: 3-167                [1, 384, 5, 6]            442,368
│    │    └─BatchNorm2d: 3-168           [1, 384, 5, 6]            768
│    └─BasicConv2d: 2-95                 [1, 448, 5, 6]            --
│    │    └─Conv2d: 3-169                [1, 448, 5, 6]            917,504
│    │    └─BatchNorm2d: 3-170           [1, 448, 5, 6]            896
│    └─BasicConv2d: 2-96                 [1, 384, 5, 6]            --
│    │    └─Conv2d: 3-171                [1, 384, 5, 6]            1,548,288
│    │    └─BatchNorm2d: 3-172           [1, 384, 5, 6]            768
│    └─BasicConv2d: 2-97                 [1, 384, 5, 6]            --
│    │    └─Conv2d: 3-173                [1, 384, 5, 6]            442,368
│    │    └─BatchNorm2d: 3-174           [1, 384, 5, 6]            768
│    └─BasicConv2d: 2-98                 [1, 384, 5, 6]            --
│    │    └─Conv2d: 3-175                [1, 384, 5, 6]            442,368
│    │    └─BatchNorm2d: 3-176           [1, 384, 5, 6]            768
│    └─BasicConv2d: 2-99                 [1, 192, 5, 6]            --
│    │    └─Conv2d: 3-177                [1, 192, 5, 6]            393,216
│    │    └─BatchNorm2d: 3-178           [1, 192, 5, 6]            384
├─AdaptiveAvgPool2d: 1-19                [1, 2048, 1, 1]           --
├─Dropout: 1-20                          [1, 2048, 1, 1]           --
├─Linear: 1-21                           [1, 1000]                 2,049,000
==========================================================================================
Total params: 27,161,264
Trainable params: 27,161,264
Non-trainable params: 0
Total mult-adds (G): 3.14
==========================================================================================
Input size (MB): 0.66
Forward/backward pass size (MB): 81.84
Params size (MB): 95.34
Estimated Total Size (MB): 177.83
…
